sms_model.tflite (tflite, 633504 bytes, 10 tensors)

arith.constant10 f4 [128]
00000000: fb23 35bc 329b 2b3c 62ab 4d3c ba68 1ebc
00000010: d78b e83c 501b 32bc abdc 48ba 8af5 d53c
00000020: 0000 0000 acaa 60bc 28a5 f33c f96d 713c
00000030: 295f 483c e2fd a83c e189 a6bc eb0f dfbb
00000040: 5837 313c 0000 0000 0000 0000 40eb 463e
00000050: 0000 0000 81a0 193b f53c 223b 80df 36bc
00000060: c29c 2bbc 8bef debb 5544 10bc 3529 3b3c
00000070: 8d91 2d3b 2a30 033d fdc8 be3c 0000 0000
00000080: 04a6 9e3c c538 203b ba4a 993c 3b53 403c
00000090: 0781 2b3c f67f 9f3c 1966 a23c cec6 01bc
000000a0: a6f8 823c 2969 8439 f8a6 9f3c df64 16bc
000000b0: 8d6f 26bc 45c4 c4bb 3f25 a03c fd46 1aba
000000c0: 7efc 1b3c e046 363d 3165 443c 7ae0 5abc
000000d0: 95a3 a03c d316 2abc ee1c 863c 0000 0000
000000e0: 4f88 e93c c4e7 b2bc e6a6 593c 0000 0000
000000f0: b4a3 1abc 0000 0000 d2f4 9b3c f8d0 363b
00000100: b2e3 38bb 9db0 a6bc a010 a83c 046d 863c
00000110: 1cd7 363c 2efd ac3c 7658 603c 56c6 1e3c
00000120: 0000 0000 0636 113c 0000 0000 cd1a 8f3c
00000130: 929e babb 6b89 c23c 4ccf af3b c58a 123c
00000140: f10e 933c 55b6 3b3c 070c 1bbc b661 12bc
00000150: d7d8 e83b 5d4b fa3b 0000 0000 05e1 923b
00000160: c901 033d 0000 0000 755d c83c 0000 0000
00000170: 66f2 ca3c 3574 7b3c 0fd6 5f3c 70b1 35bc
00000180: 967b c33c 0000 0000 5f28 773c 6a04 e63c
00000190: dd7b a03c d4af b93c 64ec f13b 95c6 ab3c
000001a0: d675 2bbc 986d f2bb 22ef 80bc 919d c4bb
000001b0: f1bc 80bc 2b80 8e3b 0075 aa3c 5456 173b
000001c0: eba9 c4bb 1d60 c3bb e21e 933c bbbb f2bb
000001d0: 160b 3a3b 1994 0abc 6891 2c3d ca54 76bc
000001e0: 6b95 873b 8cef 10bc 5f8a e73c d4b3 f83c
000001f0: d11f 0e3c 289f 3ebc 4195 c7bb ee1e 90bc
-0.011055942 0.010474013 0.012553068 -0.009668523 0.028386993 -0.01087077 -0.00076622766 0.026118059
0.0 -0.013712566 0.029741839 0.014735692 0.012229719 0.020628873 -0.020329418 -0.0068073175
0.010816418 0.0 0.0 0.19425678 0.0 0.0023441615 0.0024755572 -0.011161685
-0.010474386 -0.006803458 -0.008805354 0.011423399 0.002648446 0.032028355 0.023289198 0.0
0.019366272 0.00244479 0.01871239 0.011738594 0.010467774 0.019470196 0.019824075 -0.007920934
0.015987705 0.00025255352 0.019488797 -0.009179323 -0.010158432 -0.0060048425 0.01954901 -0.0005885212
0.009520648 0.044501185 0.011987017 -0.013359183 0.019609252 -0.010381418 0.016371217 0.0
0.02850738 -0.02183903 0.013284421 0.0 -0.009438444 0.0 0.019037638 0.0027895551
-0.002821189 -0.020347888 0.02051574 0.016409405 0.0111596845 0.02111682 0.013692966 0.009690842
0.0 0.008862978 0.0 0.017468834 -0.0056951726 0.023747167 0.005365288 0.008944218
0.01795146 0.011457046 -0.009463317 -0.008934429 0.0071059274 0.0076383785 0.0 0.004482391
0.031984124 0.0 0.024458626 0.0 0.024773788 0.01534753 0.013661875 -0.011089668
0.023862641 0.0 0.015085309 0.028078277 0.019590313 0.02266685 0.0073829163 0.020968715
-0.010465106 -0.0073983185 -0.015739027 -0.0060002287 -0.015715094 0.004348775 0.020807743 0.0023092227
-0.006001701 -0.0059623853 0.017959062 -0.007407633 0.0028387955 -0.008458161 0.042130858 -0.015034864
0.004137685 -0.008846175 0.028264223 0.030359186 0.008674578 -0.0116346255 -0.0060907905 -0.017592873

arith.constant12 f4 [1, 128]
00000000: 517f 21be 586e 6d3d e13b 22be af9a 8539
00000010: 0601 36be 151e 2e3e 8386 703e 9991 6bbe
00000020: 28a4 183e 8d30 593d c165 173e dd48 febd
00000030: 458e 623e 8b62 fbbd 6442 0abd 0f50 b43d
00000040: 99ad 41be 0084 00bc 84f7 df3d d171 69be
00000050: 6806 7d3d 1680 0c3e d800 843e 21bf 30bd
00000060: e15d 60bd c096 8abc 2da4 8f3d 35f3 51bd
00000070: 9841 dc3d 1947 a23d 7c4c 2ebe cc8f 4f3e
00000080: f740 a7bd 57a2 2a3e 347b 39be 9c9c 713e
00000090: d87b 323e 1839 49be 5df0 0abe 7555 1f3e
000000a0: c73f c9bd cdb3 4c3e 703e b1bd 241d 27be
000000b0: 7a51 acbc 8302 533e 074b 5cbe 50e3 763e
000000c0: 0cbe 2ebe f89b 8abd 4077 4e3e b627 3dbe
000000d0: ccae c7bd 2a0a 0a3e 0c11 133e d417 463e
000000e0: a150 f9bd b31f 09be bbe0 7d3e 2837 0dbd
000000f0: d4cf e8bd 084b 13be 4b76 20be 12f7 523e
00000100: b678 653e d3e7 af3d af62 1cbe 7d29 f03d
00000110: 9a44 4cbe 5fa2 0bbe b60a 60be d400 653d
00000120: 8aca 223e cf2c 583d 8ad4 b8bd 4e99 70be
00000130: 1f57 3fbc 1e78 a7bd 7c1b 53bd 5d72 833e
00000140: b8fc 68be fe67 4a3e 4e73 493e 689b 273e
00000150: c440 1dbd df58 b73d f0c1 cbbc 33c7 103e
00000160: edf1 6d3d a821 093d 7780 48be 080a afbc
00000170: 38f0 03be 5e7f ab3d 3487 70be 9f85 1c3e
00000180: 3d05 f4bd 4840 2abe 2579 3c3e 9ee1 89bd
00000190: d88f 27be efb3 73be 466c abbd 1dad 82be
000001a0: dc1f 523d 9a20 43be ebb9 b0bb 433e 153e
000001b0: 2b6a e4bc 097c ff3c 182f b33d aae5 b5bd
000001c0: 0f19 57be 35ff 5c3c 9933 44be a653 69bb
000001d0: 1ace 073e b754 e3bd 4d87 3d3d 8253 2f3e
000001e0: bee3 0f3e ba9b 013e 4e4b 14be 36eb 473d
000001f0: d8e9 803e a7f1 f2bc 49c9 1d3d 9047 36bd
-0.15771224 0.05796656 -0.15843154 0.00025482985 -0.17773828 0.17003663 0.23488812 -0.2300476
0.1490637 0.053024817 0.1478491 -0.12416241 0.22124584 -0.12274655 -0.03375472 0.088043325
-0.18913879 -0.007843971 0.10935882 -0.22797324 0.061773688 0.13720736 0.25781894 -0.043151025
-0.05477703 -0.016917586 0.07013736 -0.05125733 0.107546985 0.07923717 -0.17021364 0.20269698
-0.08166688 0.1666349 -0.18113405 0.23594898 0.17430055 -0.19650686 -0.13568254 0.15559943
-0.09826618 0.19990464 -0.08654487 -0.1631971 -0.021034945 0.20606427 -0.21512996 0.2411015
-0.17064685 -0.0676803 0.20162678 -0.1847218 -0.09750137 0.1348044 0.14361972 0.19345027
-0.12173582 -0.13390999 0.24792759 -0.03447643 -0.11367765 -0.14384091 -0.15670125 0.20602062
0.22409329 0.08589139 -0.1527202 0.11726663 -0.19948044 -0.13636158 -0.21879086 0.055908993
0.15897575 0.052777108 -0.090249136 -0.23495981 -0.011678486 -0.081772074 -0.051539883 0.2567319
-0.22752655 0.19766232 0.19672891 0.16367877 -0.038391843 0.08952498 -0.02487275 0.14138488
0.058092047 0.033479363 -0.19580255 -0.021367088 -0.12884605 0.08373903 -0.23489076 0.15285347
-0.119150616 -0.16626084 0.18405588 -0.06732486 -0.16363466 -0.23799108 -0.08370261 -0.255227
0.051299915 -0.19055405 -0.005393257 0.14574532 -0.027882656 0.031187074 0.08749217 -0.088816956
-0.21005653 0.0134885805 -0.19160308 -0.0035602837 0.13262215 -0.111001424 0.04627161 0.171217
0.1405172 0.12657061 -0.14481851 0.0488083 0.2517841 -0.029656244 0.03852204 -0.04450184

tfl.pseudo_qconst i1 [128, 128]
00000000: 3df2 0c3f 2fae 63eb ae6f be27 4ac8 9c2f
00000010: c79d dbee 3422 d931 138b 60e7 9c99 b1ee
00000020: 9681 d297 26ca c8a6 b2d1 d5c9 af44 b348
00000030: cbfc dea0 c6c8 32cf ca56 13da 6768 d0ab
00000040: b4aa 96d4 b041 d416 0199 4bf1 f9bd 394a
00000050: 17fd 0e1b a533 c4d9 5f94 f4d0 f995 9244
00000060: a910 5d8a b70c 44fa 3be6 b349 b947 291e
00000070: 6320 2731 f9fb b7ba e852 9f4e 441a 5113
00000080: 7693 09e3 bbd1 05ed 544c f4d0 272d 1e47
00000090: c2e8 32c3 395e e018 0cfd 4809 fbb3 6ffe
000000a0: 0e31 cbf1 4cc8 bfea e7d0 df50 1abd 2e61
000000b0: 3796 bba4 49a0 d939 f037 ea11 cd4a 313e
000000c0: 46ba cfc5 481f 1c28 f0b8 fd10 6e1d bf66
000000d0: 127f 1837 4856 2555 d4f8 1555 1b02 c3d0
000000e0: ec57 c5d9 de08 56cf 1664 ee20 f7d2 0825
000000f0: e37e fdc4 47ef 55dd 7c0a 2cc0 e917 07a9
61 -14 12 63 47 -82 99 -21
-82 111 -66 39 74 -56 -100 47
-57 -99 -37 -18 52 34 -39 49
19 -117 96 -25 -100 -103 -79 -18
-106 -127 -46 -105 38 -54 -56 -90
-78 -47 -43 -55 -81 68 -77 72
-53 -4 -34 -96 -58 -56 50 -49
-54 86 19 -38 103 104 -48 -85
-76 -86 -106 -44 -80 65 -44 22
1 -103 75 -15 -7 -67 57 74
23 -3 14 27 -91 51 -60 -39
95 -108 -12 -48 -7 -107 -110 68
-87 16 93 -118 -73 12 68 -6
59 -26 -77 73 -71 71 41 30
99 32 39 49 -7 -5 -73 -70
-24 82 -97 78 68 26 81 19
118 -109 9 -29 -69 -47 5 -19
84 76 -12 -48 39 45 30 71
-62 -24 50 -61 57 94 -32 24
12 -3 72 9 -5 -77 111 -2
14 49 -53 -15 76 -56 -65 -22
-25 -48 -33 80 26 -67 46 97
55 -106 -69 -92 73 -96 -39 57
-16 55 -22 17 -51 74 49 62
70 -70 -49 -59 72 31 28 40
-16 -72 -3 16 110 29 -65 102
18 127 24 55 72 86 37 85
-44 -8 21 85 27 2 -61 -48
-20 87 -59 -39 -34 8 86 -49
22 100 -18 32 -9 -46 8 37
-29 126 -3 -60 71 -17 85 -35
124 10 44 -64 -23 23 7 -87

tfl.pseudo_qconst1 i1 [8000, 64] scale=0.0021340663 zero_point=0
00000000: b643 dbce afd4 c749 f6ac a7ce 1f4c 0e14
00000010: 2028 4006 c9f2 f53e 29b6 e1f7 1dc9 adc4
00000020: 32c8 4a12 2143 3567 2a92 cef3 08fa 481c
00000030: 3d7f 3519 9860 ebe2 e416 e112 d72a 579b
00000040: 140f 060e 0817 efee 1403 0eea e9fd 06fd
00000050: f6fc 0a0e eff6 0efa f213 f9e9 0205 09ef
00000060: f306 f7ed 0e07 fbef f8f3 02ef 16ed 0b01
00000070: ef04 1215 f9fa 1505 f4ea 0ef1 07f5 ecf9
00000080: faf7 0505 1715 12f5 0c02 0bf8 1bdf fc0e
00000090: 0518 f2ee f5f9 fee8 0e04 ff0a 1506 2cf2
000000a0: eeed 1bec 0e00 21d8 ef1f 05e6 fdf0 e01c
000000b0: f411 f7d8 e9e1 0806 03ff f7d7 faff ed13
000000c0: e804 13f6 0a1b 19e7 2908 1d2c 0b08 0b03
000000d0: 020a 0e18 160d 0aec 1f29 f7f7 f5f1 1e01
000000e0: d90a 0418 f6e1 d10e ddfc 1ee9 f30b dcc2
000000f0: f5e2 edd7 0215 feee f9de 0600 f8eb f01b
-0.15792091 0.14298244 -0.078960456 -0.10670332 -0.17285937 -0.093898915 -0.12164178 0.15578684
-0.021340663 -0.17926157 -0.1899319 -0.10670332 0.06615605 0.16218904 0.029876929 0.042681325
0.06829012 0.08536265 0.13658024 0.012804398 -0.117373645 -0.029876929 -0.023474729 0.1323121
0.08749672 -0.15792091 -0.06615605 -0.019206597 0.061887924 -0.117373645 -0.17712751 -0.12804398
0.10670332 -0.119507715 0.15792091 0.038413193 0.07042419 0.14298244 0.11310551 0.21980883
0.08963078 -0.23474729 -0.10670332 -0.027742863 0.01707253 -0.012804398 0.15365277 0.059753858
0.13017805 0.27102643 0.11310551 0.05335166 -0.2219429 0.20487037 -0.04481539 -0.06402199
-0.059753858 0.046949457 -0.06615605 0.038413193 -0.08749672 0.08963078 0.18566377 -0.21554069
0.042681325 0.032010995 0.012804398 0.029876929 0.01707253 0.049083523 -0.036279127 -0.038413193
0.042681325 0.006402199 0.029876929 -0.046949457 -0.049083523 -0.006402199 0.012804398 -0.006402199
-0.021340663 -0.008536265 0.021340663 0.029876929 -0.036279127 -0.021340663 0.029876929 -0.012804398
-0.029876929 0.04054726 -0.014938464 -0.049083523 0.0042681326 0.010670331 0.019206597 -0.036279127
-0.027742863 0.012804398 -0.019206597 -0.04054726 0.029876929 0.014938464 -0.010670331 -0.036279127
-0.01707253 -0.027742863 0.0042681326 -0.036279127 0.046949457 -0.04054726 0.023474729 0.0021340663
-0.036279127 0.008536265 0.038413193 0.04481539 -0.014938464 -0.012804398 0.04481539 0.010670331
-0.025608797 -0.046949457 0.029876929 -0.032010995 0.014938464 -0.023474729 -0.042681325 -0.014938464
-0.012804398 -0.019206597 0.010670331 0.010670331 0.049083523 0.04481539 0.038413193 -0.023474729
0.025608797 0.0042681326 0.023474729 -0.01707253 0.05761979 -0.07042419 -0.008536265 0.029876929
0.010670331 0.051217593 -0.029876929 -0.038413193 -0.023474729 -0.014938464 -0.0042681326 -0.051217593
0.029876929 0.008536265 -0.0021340663 0.021340663 0.04481539 0.012804398 0.093898915 -0.029876929
-0.038413193 -0.04054726 0.05761979 -0.042681325 0.029876929 0.0 0.07042419 -0.08536265
-0.036279127 0.06615605 0.010670331 -0.055485725 -0.006402199 -0.03414506 -0.06829012 0.059753858
-0.025608797 0.036279127 -0.019206597 -0.08536265 -0.049083523 -0.06615605 0.01707253 0.012804398
0.006402199 -0.0021340663 -0.019206597 -0.08749672 -0.012804398 -0.0021340663 -0.04054726 0.04054726
-0.051217593 0.008536265 0.04054726 -0.021340663 0.021340663 0.05761979 0.05335166 -0.05335166
0.08749672 0.01707253 0.061887924 0.093898915 0.023474729 0.01707253 0.023474729 0.006402199
0.0042681326 0.021340663 0.029876929 0.051217593 0.046949457 0.027742863 0.021340663 -0.042681325
0.06615605 0.08749672 -0.019206597 -0.019206597 -0.023474729 -0.032010995 0.06402199 0.0021340663
-0.08322859 0.021340663 0.008536265 0.051217593 -0.021340663 -0.06615605 -0.10030112 0.029876929
-0.074692324 -0.008536265 0.06402199 -0.049083523 -0.027742863 0.023474729 -0.076826386 -0.1323121
-0.023474729 -0.06402199 -0.04054726 -0.08749672 0.0042681326 0.04481539 -0.0042681326 -0.038413193
-0.014938464 -0.072558254 0.012804398 0.0 -0.01707253 -0.04481539 -0.03414506 0.05761979

arith.constant15 f4 [256]
00000000: 25ee 8f3c 757c 7b3c f3b5 383d b23e 0b3d
00000010: c22d f93c 3a6f 083c de3e 023d 9562 1e3d
00000020: 03c4 fa3c 86a9 2c3c b38b 2b3d cae3 eb3c
00000030: 4b88 053d 993c 913c 75dc cb3c 0713 243c
00000040: ef7e 803c 4674 253d 225d 233c b3b5 063d
00000050: 1475 6b3c 71fa 263d 89ed 8d3c 1f30 f73c
00000060: 84aa 063c 4f29 d03c ce15 94bb e365 283d
00000070: ad81 773c 7944 793c dc66 f73c 98f2 1e3d
00000080: 7f8b 6b3b 5ca7 d53c acdc 013d 153e f43c
00000090: ffdc 0d3d cddc c83c fc2d c63c 879c 9a3c
000000a0: bd8a a23c 9014 f63c 4ca8 8a3c d21c 003c
000000b0: aa16 033d a60e 0d3d 351b 9f3c 9937 ce3c
000000c0: 4f58 9a3c 52bb 1a3d e536 a03c 1e69 d93c
000000d0: a61c 173d 644c df3c 468a 233d 3dec af3c
000000e0: dfba f13c 3654 173d d28e 9f3c e625 763b
000000f0: aa88 eb3c 0372 263d dba9 9d3c 6142 e33c
00000100: 1659 823f a02a 813f 8415 853f 379e 843f
00000110: 611a 833f 9f20 813f e7c9 833f f250 843f
00000120: c766 843f 2a9f 813f 01e8 843f c3f0 833f
00000130: 68c3 843f b51c 823f b854 833f 11dd 813f
00000140: fa92 823f 5b9b 843f 6402 813f 4564 833f
00000150: 71f2 803f 37cf 843f ff86 823f 5174 843f
00000160: 87b2 813f 2dc7 823f 19b9 7e3f 4b65 853f
00000170: 6945 813f d0d6 813f 0eef 813f 8890 833f
00000180: 176d 813f 86f6 823f 46b7 833f b63a 843f
00000190: 02de 833f 205b 833f e1de 823f 7a47 823f
000001a0: 4b86 823f e8fb 833f 7f36 833f e630 813f
000001b0: 4221 833f b205 853f b641 823f 0969 833f
000001c0: 50e6 823f 7edf 843f 508b 833f 2759 823f
000001d0: 8fa1 843f ca68 833f 969e 843f 8807 833f
000001e0: d70e 833f 6ba0 843f 7795 823f c80b 813f
000001f0: aa17 833f 6170 853f 8776 823f d08f 843f
00000200: 6728 613c 0166 10bc af03 b03c 6527 513b
00000210: 6757 4c3c 68d9 f4bc 5baf 853c 3933 9c3c
00000220: 11eb 30bc 8fab a93c 51ec 173c 4a2a 4e3c
00000230: e916 a03c 6d63 f0bb 83d6 413c 2ab0 c7bc
00000240: 93ee 27bc ce23 3b3c 427f 2f3c 1b3f 093d
00000250: f74c e3bb a2ca a53b 10a3 0cbc b294 ad3c
00000260: 1490 0e3b d1fe e23a efda 7d3c 968b c53c
00000270: 776b 9c3b 7ca6 f4bc 83d2 48bc b3a8 a43b
00000280: cde3 4c3c 2409 153a ce33 88ba c5cc 543c
00000290: 8003 aabb 318d bf3b c933 5fbb abe9 92bb
000002a0: b9b1 883c bb38 8a3c 20b2 a3bc 9e8e 423c
000002b0: 9a64 093b 2d0a f13c d10e 233c 6497 9abb
000002c0: d05e 6a3c 434a e33c b2a1 b63c b63b e03c
000002d0: 6727 a83c b17c a4bb acbb 633c 2481 00bb
000002e0: 135f 7c3c a504 a03c c93f 31bb 9f54 f2bc
000002f0: 27cd 48bc 0176 af3c 1a8e 8cbb 3683 dd38
00000300: a5a3 a73c c1fe 8f3c 550d 423d e389 1d3d
00000310: 55bf 063d 57b7 113c b196 173d 0b8a 2f3d
00000320: fa27 063d e1bd 733c 9312 433d 4678 263d
00000330: b8fa 1c3d 5a0c a53c d191 fe3c 96f9 9a3c
00000340: 71a3 a43c 55b4 3a3d 87b1 643c 1d47 213d
00000350: 51d8 753c 697e 3d3d 1bda be3c 681b 203d
00000360: 3dba 4e3c 2b4a dd3c 715f 91bb 6488 383d
00000370: 50f2 d93c 57eb d13c 12db 083d 54b1 1f3d
00000380: e461 a63b adc7 093d 0702 133d a67b 073d
00000390: d602 293d 70b2 ea3c ca2c 0c3d 3758 bc3c
000003a0: 1c57 ea3c 9bc6 113d eb05 aa3c 362c 693c
000003b0: 4b0e 1d3d 755a 133d 8b14 c63c 3d38 fa3c
000003c0: d73d ba3c e413 283d 0c22 a63c ddbf 053d
000003d0: 3d2b 283d 17fa f53c 5b35 373d 2c68 f83c
000003e0: 93be 0b3d 8c0c 303d 0728 b83c 6fd9 9a3b
000003f0: 4103 fa3c f877 393d a82b bf3c 885b ef3c
0.01756961 0.015349497 0.045095395 0.033995338 0.030417327 0.0083273 0.031798236 0.038668234
0.030611044 0.010538464 0.041881274 0.028795142 0.032600682 0.01772909 0.024885396 0.010014302
0.015685527 0.04039409 0.009970935 0.032888126 0.014371175 0.040766183 0.01732518 0.030174313
0.008219365 0.025410322 -0.004519201 0.04111279 0.015106601 0.015214079 0.030200414 0.038805574
0.00359413 0.02608078 0.03170459 0.02981476 0.034634586 0.024519349 0.024191849 0.018873466
0.019841546 0.030039102 0.016925953 0.007819371 0.032004036 0.034437798 0.019422153 0.025172995
0.018840937 0.0377763 0.019557426 0.026539382 0.036892556 0.027258106 0.03992679 0.021474952
0.029508052 0.036945544 0.019477282 0.003755921 0.02875169 0.040636074 0.019246032 0.027741613
1.0183437 1.0091133 1.0397191 1.0360783 1.0242425 1.008808 1.0295991 1.0337203
1.0343865 1.0126698 1.0383302 1.030785 1.0372133 1.0165011 1.0260229 1.0145589
1.0201104 1.0359911 1.0078855 1.0264975 1.0073987 1.0375737 1.0197448 1.0347997
1.0132607 1.0217034 0.99501187 1.0421537 1.0099307 1.014368 1.0151079 1.0278482
1.0111417 1.0231483 1.0290306 1.0330417 1.0302126 1.0262184 1.0224267 1.0178063
1.0197233 1.0311251 1.0251006 1.0093048 1.0244524 1.0392363 1.0176303 1.0266429
1.0226536 1.0380704 1.027689 1.0183457 1.0361804 1.0266354 1.0360897 1.0236673
1.0238904 1.0361456 1.0201863 1.008172 1.0241597 1.042492 1.0192422 1.0356388
0.013742543 -0.008813382 0.021486131 0.003191435 0.01247201 -0.029888824 0.016318968 0.019067394
-0.010798232 0.020711688 0.009272651 0.012583325 0.019542174 -0.007336071 0.011830929 -0.024375994
-0.010249752 0.011422111 0.010711493 0.033507448 -0.006936665 0.005059556 -0.008583799 0.021189068
0.0021753358 0.0017318373 0.015494092 0.024114411 0.004773553 -0.029864542 -0.012257221 0.0050249933
0.012505484 0.0005685261 -0.0010391416 0.012988274 -0.0051884055 0.0058456887 -0.0034057966 -0.004483422
0.016686307 0.016872754 -0.019982398 0.011874823 0.0020964504 0.029423798 0.009952263 -0.004717754
0.014304832 0.027745372 0.0222939 0.027372222 0.020526601 -0.005019747 0.013899725 -0.0019608224
0.015403527 0.019533465 -0.0027046076 -0.029581366 -0.012255943 0.021418573 -0.0042894008 0.00010562541
0.020463774 0.01757753 0.047375996 0.038461577 0.032897312 0.008893809 0.037008945 0.042856257
0.03275297 0.014876814 0.047625136 0.040642045 0.03832504 0.020147491 0.03107539 0.01891784
0.020097466 0.045582134 0.013958341 0.03937446 0.015005187 0.046263132 0.02329736 0.039088637
0.012617645 0.027012905 -0.0044364263 0.045051947 0.026604801 0.025624914 0.033412047 0.038987473
0.0050775874 0.03363769 0.035890605 0.033076905 0.04126247 0.028649539 0.0342224 0.022991283
0.02860599 0.035589796 0.020754775 0.014231732 0.03834371 0.03597494 0.024179718 0.030544395
0.022734566 0.041034594 0.020279907 0.03265368 0.04105686 0.030026479 0.044728618 0.03032311
0.034117293 0.042980716 0.022480024 0.004725627 0.03051913 0.045280427 0.023336247 0.02921845

tfl.pseudo_qconst2 i1 [256, 64]
00000000: 5049 f0ea e5d9 0b12 a6df 45fe f865 4019
00000010: 7f56 d192 0a65 d943 23dd d014 bd84 89b8
00000020: 109e bf4a f1d2 bebd e83d 3b9f 4713 5008
00000030: c07c f2d0 be64 9a90 30c2 a274 e5d0 4608
00000040: b2db 47ff ebd9 34ed ecb8 b765 1f81 35d5
00000050: c65d a2fa 5afb b029 2fbe e21c f12c 3f02
00000060: 18f8 0f3c efc8 acaa 85f9 00d7 26da 419e
00000070: a014 a43a 0038 b61b 5806 1394 f4e3 1c5d
00000080: 7048 9439 ed18 f8da fa2b 5802 e117 d53c
00000090: 19b5 43d2 e18d 4e63 244a ee5d f1df 9fbc
000000a0: 902b f028 b3f3 67bd 7cee b6a6 ca01 8fe5
000000b0: 6441 0b4b 53b9 97cc 8132 e84e 1bbe 86f5
000000c0: eff7 ae2f c3bd 94aa bea4 e65b f75e d2ca
000000d0: 3cf1 5d1b 11e9 aa0e c80c 0b03 ba2a 4951
000000e0: 2b1b d5bf b290 2bab abb2 f4b9 f3df 7fa6
000000f0: ae11 3743 9b11 6beb 701f 4c8f cf14 a5d3
80 73 -16 -22 -27 -39 11 18
-90 -33 69 -2 -8 101 64 25
127 86 -47 -110 10 101 -39 67
35 -35 -48 20 -67 -124 -119 -72
16 -98 -65 74 -15 -46 -66 -67
-24 61 59 -97 71 19 80 8
-64 124 -14 -48 -66 100 -102 -112
48 -62 -94 116 -27 -48 70 8
-78 -37 71 -1 -21 -39 52 -19
-20 -72 -73 101 31 -127 53 -43
-58 93 -94 -6 90 -5 -80 41
47 -66 -30 28 -15 44 63 2
24 -8 15 60 -17 -56 -84 -86
-123 -7 0 -41 38 -38 65 -98
-96 20 -92 58 0 56 -74 27
88 6 19 -108 -12 -29 28 93
112 72 -108 57 -19 24 -8 -38
-6 43 88 2 -31 23 -43 60
25 -75 67 -46 -31 -115 78 99
36 74 -18 93 -15 -33 -97 -68
-112 43 -16 40 -77 -13 103 -67
124 -18 -74 -90 -54 1 -113 -27
100 65 11 75 83 -71 -105 -52
-127 50 -24 78 27 -66 -122 -11
-17 -9 -82 47 -61 -67 -108 -86
-66 -92 -26 91 -9 94 -46 -54
60 -15 93 27 17 -23 -86 14
-56 12 11 3 -70 42 73 81
43 27 -43 -65 -78 -112 43 -85
-85 -78 -12 -71 -13 -33 127 -90
-82 17 55 67 -101 17 107 -21
112 31 76 -113 -49 20 -91 -45

tfl.pseudo_qconst3 i1 [256, 64]
00000000: bb81 feb7 eb1e c528 03c9 0edc 0e57 51ff
00000010: 1fcc 9609 cfbb 08c3 35ee 570d 3018 bb0b
00000020: f8a0 18a9 b542 36dd 26c8 2030 ee00 da20
00000030: 2ae5 0e39 4100 10e8 44f5 c9f5 9c2a 27e6
00000040: 31f6 be03 3808 07dd 05ee 0108 2b97 ba28
00000050: e93f fbde dc16 d85a b72a d7fc fc81 ef16
00000060: 3822 331b f146 cc00 c2f2 4fdc c813 3696
00000070: ca49 513b caed 3eae 6216 b801 ef55 f8f0
00000080: ed20 4a55 fcfe d137 0a0f 1bd6 2feb faef
00000090: dccf af56 644c cfb9 c242 bb03 c8b3 f818
000000a0: 7f11 a598 90f2 4792 2200 167c e2b7 61f6
000000b0: e3ef d83e b4a3 f539 f426 d401 7402 f8ae
000000c0: f8e7 d239 bd16 7005 16e8 e095 0401 d80f
000000d0: 8130 c021 0f19 a2cc eaf4 1c2b fb1c ffe4
000000e0: f232 00b8 bde8 f2ae ea31 21ea 1946 6fc7
000000f0: 2510 262c d5cb 19eb 24b2 def9 cb01 bfb5
-69 -127 -2 -73 -21 30 -59 40
3 -55 14 -36 14 87 81 -1
31 -52 -106 9 -49 -69 8 -61
53 -18 87 13 48 24 -69 11
-8 -96 24 -87 -75 66 54 -35
38 -56 32 48 -18 0 -38 32
42 -27 14 57 65 0 16 -24
68 -11 -55 -11 -100 42 39 -26
49 -10 -66 3 56 8 7 -35
5 -18 1 8 43 -105 -70 40
-23 63 -5 -34 -36 22 -40 90
-73 42 -41 -4 -4 -127 -17 22
56 34 51 27 -15 70 -52 0
-62 -14 79 -36 -56 19 54 -106
-54 73 81 59 -54 -19 62 -82
98 22 -72 1 -17 85 -8 -16
-19 32 74 85 -4 -2 -47 55
10 15 27 -42 47 -21 -6 -17
-36 -49 -81 86 100 76 -49 -71
-62 66 -69 3 -56 -77 -8 24
127 17 -91 -104 -112 -14 71 -110
34 0 22 124 -30 -73 97 -10
-29 -17 -40 62 -76 -93 -11 57
-12 38 -44 1 116 2 -8 -82
-8 -25 -46 57 -67 22 112 5
22 -24 -32 -107 4 1 -40 15
-127 48 -64 33 15 25 -94 -52
-22 -12 28 43 -5 28 -1 -28
-14 50 0 -72 -67 -24 -14 -82
-22 49 33 -22 25 70 111 -57
37 16 38 44 -43 -53 25 -21
36 -78 -34 -7 -53 1 -65 -75

arith.constant18 f4 [256]
00000000: 00fe 3f3d 2d1e 213c 9507 c13c 2510 c33c
00000010: f2df b53c b1cc e23b 6ef3 0bbc 7d1b 1f3c
00000020: b8cd b23b 27db 0b3d 5837 483d 958c dd3c
00000030: cc61 7e3c 543f ce3c 8eda a5ba 810b 113d
00000040: c535 5c3d 2254 483c 9764 b13c db7d 113d
00000050: 20d2 d53c 6b79 543d 7766 b63c 43e7 8dbc
00000060: 6945 163d b4f5 573d be91 4f3c b28b 4b3d
00000070: 0565 1a3d 6b54 673b dc39 023d f2fa 153d
00000080: 6a94 d83c 7129 073d 56dc 153a 3bfd 913c
00000090: 8225 2f3d 4525 013d 3dcb 093d 2ef4 d23c
000000a0: 0bdb bc3c acdb 053d 9309 c63c a743 db3c
000000b0: e934 b03c 6448 d13c 4d85 0b3d a95c 1b3c
000000c0: c09f 8f3c 0175 e63c 22cb c03c fda8 cd3b
000000d0: 359d 293b 18dd 8a3c 1491 223c 009a f93c
000000e0: 0bf9 433d 21f2 273d ecec 8c3c ae7c 933c
000000f0: 8843 423d 237f b53c 5574 503c 1a6a 1d3c
00000100: 86dd 833f 1e71 803f 47bd 803f f944 813f
00000110: 451f 803f c065 7d3f 4971 7f3f 5ba2 813f
00000120: 05af 7e3f fca2 813f ffaa 823f d27b 803f
00000130: 7680 813f f5a3 813f 266c 7e3f e5bd 823f
00000140: f305 853f 0f20 813f 08f8 823f 2e51 823f
00000150: 6012 803f 9789 843f ddf0 823f e958 7d3f
00000160: 822e 843f a9bc 843f 0a9b 813f e711 853f
00000170: a4ab 833f 02fc 7e3f 8edd 813f c197 833f
00000180: 9dd3 823f bb5a 833f 8310 7f3f c4ed 813f
00000190: d98d 843f 9ecc 823f e41d 833f 09dd 833f
000001a0: d025 823f 6709 833f 038b 813f 73af 813f
000001b0: 71ab 803f 5488 833f d85a 833f 7e4a 803f
000001c0: 5f69 813f 9595 833f 4d3b 813f f4e5 7e3f
000001d0: 336d 7f3f 8375 803f 5d35 813f 0b5b 833f
000001e0: 2abd 843f fdbd 833f e107 813f 6da6 803f
000001f0: b85b 853f b6a8 803f 02b6 813f cf3c 813f
00000200: f8f0 3a3c 3a12 7b3a 1dab 4dbc 960d 4d3c
00000210: 1c2a 0d3c cdad dc3b 543e 85bc 472d 9f3c
00000220: 7aea df39 4d80 7e3c 4f86 66bc 0f54 53bc
00000230: 6241 433c 06d7 2d39 9711 05bc 3401 a33c
00000240: 3bde dd3b 5354 ccbc b80d 843c 09cd 6c3c
00000250: 93cd 7d3c 4375 99b9 c3c1 0a3d 4e10 0dbc
00000260: 7973 563c e38a 513c 631c 9abc ee40 46b8
00000270: 21d9 e33b e7c7 0ebb 0e5a 313b 97bd af3c
00000280: 7717 afbc 16ee 173d 573f 56bc a6dc f23c
00000290: 0b52 6f3b 0896 a83b c4ed c43c 6bf8 833b
000002a0: 2f88 743c 63a3 6f3c 407c 303c e6c0 1f3c
000002b0: ac0e 463b 087b d23c ce17 ae3c 6910 d33b
000002c0: 423f 1f3c e1fc 5f3c da72 25bc 413d 0bbc
000002d0: 41f1 3dbc eb24 3d3c 2bd7 de3b 4c73 bb3c
000002e0: a4bc 813c 3fd4 57bb a6d3 243c 83bd 0a3c
000002f0: 3044 ce3c 4e4f b5ba b667 d6bc e52b 943c
00000300: b54e 503d fef6 113c a002 c73c efda c13c
00000310: ef51 a13c 29eb 033b 098f 5cbc 0f3f 1c3c
00000320: 8213 48b9 206a f63c 91e3 4c3d 0133 d03c
00000330: 8cdb 7d3c 0c17 cf3c dcec d1ba 5fc8 0d3d
00000340: 9f3e 683d ae86 8d3c 9797 b93c bacc f63c
00000350: d825 ca3c c001 563d 081d 8f3c 0878 85bc
00000360: 3f90 043d 5371 6b3d a363 473c 23a2 6a3d
00000370: 8331 023d ca1b 833b 770a 003d 76b4 193d
00000380: 4575 963c 6459 143d 73a9 cf3a 523f 923c
00000390: 62ee 4e3d 540f 023d 1aa7 f53c 899e cd3c
000003a0: 0f89 b23c 8c9c ee3c ded4 d13c 5c88 c03c
000003b0: afc9 a33c f7a3 dd3c 8a21 f83c de08 383c
000003c0: fbdd 853c 02f6 ac3c e2f3 a63c 2f4b d53b
000003d0: 1d52 303b a2bf 4c3c 62a1 753b 723f f83c
000003e0: 39f0 463d 3db0 4f3d 515e 7e3c 8235 953c
000003f0: 803e 5b3d 5be2 b33c 9d84 893a d0ca fe3b
0.046873093 0.009833855 0.023563186 0.02381141 0.022201512 0.006921374 -0.008541925 0.009711144
0.0054566525 0.034144547 0.048880905 0.027044574 0.015526246 0.025176682 -0.0012653635 0.03541136
0.053762216 0.01222709 0.02165441 0.035520416 0.026101172 0.051873606 0.022265656 -0.017322188
0.03668729 0.052724555 0.012669025 0.04969377 0.037693996 0.003529812 0.03179346 0.036616273
0.026437957 0.032998506 0.00057167315 0.017820945 0.04276038 0.031529684 0.03364109 0.0257512
0.023053667 0.0326802 0.024174487 0.026765658 0.021509605 0.025547214 0.034062672 0.009482541
0.01753223 0.028131964 0.023534361 0.0062762485 0.0025881056 0.016951129 0.009922285 0.03046894
0.047844928 0.041002396 0.017202817 0.018003788 0.047427684 0.02215535 0.012723048 0.009607816
1.0301979 1.0034521 1.0057763 1.0099174 1.0009543 0.98983383 0.99782234 1.0127672
0.9948581 1.0127864 1.0208434 1.0037787 1.0117328 1.0128161 0.9938377 1.0214201
1.039244 1.0087909 1.0231943 1.0181024 1.0005608 1.0354489 1.0229756 0.9896379
1.0326693 1.0370075 1.0125439 1.0396088 1.0286756 0.99603283 1.0145738 1.0280687
1.0220829 1.0262064 0.9963457 1.0150685 1.0355788 1.0218694 1.0243497 1.030183
1.016779 1.0237244 1.0120548 1.0131668 1.005232 1.0275979 1.0262098 1.0022733
1.0110282 1.0280024 1.0096222 0.9956963 0.99776 1.0035862 1.009441 1.0262159
1.0370228 1.0292355 1.008053 1.0050789 1.0418615 1.0051486 1.0133669 1.0096682
0.0114099905 0.0009577606 -0.012553004 0.012515446 0.008615997 0.006734586 -0.016265072 0.01943077
0.00042708573 0.015533519 -0.014070108 -0.012898459 0.011917444 0.00016578668 -0.0081218695 0.019898035
0.0067708767 -0.024942553 0.016119823 0.014453181 0.015490907 -0.000292698 0.03387619 -0.008609844
0.013089054 0.012789461 -0.018812364 -4.726735e-05 0.006953374 -0.0021786632 0.0027061733 0.021452708
-0.021373494 0.03709229 -0.013076625 0.029646229 0.0036517407 0.0051448382 0.024039157 0.0040274165
0.014925047 0.014626357 0.010771811 0.00975058 0.0030221147 0.025693431 0.021251585 0.006441165
0.009719672 0.013671131 -0.0100981835 -0.008498491 -0.011593164 0.011544446 0.0068005524 0.022882126
0.015837021 -0.0032932905 0.010060227 0.008468035 0.025178999 -0.0013832839 -0.0261725 0.018087337
0.05085631 0.008908985 0.024293244 0.023663966 0.01969239 0.002012918 -0.013461837 0.009536519
-0.00019080754 0.030079901 0.05002171 0.025414946 0.015494239 0.025279544 -0.0016016024 0.034614917
0.056700345 0.017276134 0.022655291 0.030126918 0.024676248 0.052247763 0.017469898 -0.016292587
0.032364126 0.05748112 0.012169751 0.057283532 0.0317855 0.0040011154 0.03125998 0.037525617
0.018366465 0.036218062 0.0015843346 0.01785246 0.05052031 0.0317529 0.029986907 0.02510001
0.02179387 0.029127382 0.025614198 0.023502521 0.019993631 0.027055724 0.03028943 0.011232583
0.0163412 0.0211134 0.020379964 0.0065092067 0.0026904412 0.012496861 0.0037480225 0.03030369
0.048568938 0.050705183 0.0155254165 0.018213991 0.0535264 0.02195852 0.0010491792 0.007775642

tfl.pseudo_qconst4 i1 [256, 64]
00000000: 3100 c0e7 253e e091 4dc6 5a43 10d1 8101
00000010: a6ca 990c 4528 980a ddf6 c99f 0e92 1e1e
00000020: e33c fd21 86c6 face f8f5 6fda 7f0e 079b
00000030: 2b38 1bd5 d326 44e3 3243 d5c7 5a26 e464
00000040: c3f0 fa3c f9aa ba91 695d cbdc 5338 46bd
00000050: 55cf 96b4 46c6 b4e5 b4c7 9608 c2f8 73f2
00000060: cdf5 546a 5ea6 a3c8 94f7 f8a7 ddfb 0901
00000070: 59ea ed7f 1bb6 5dfb cce2 e4e4 4e18 cec2
00000080: d645 5a95 eab3 0f2b 2afc dbb5 4059 ba9d
00000090: 02e4 f88e 1155 9bec 4e1b 45af 645a 3dca
000000a0: 18f8 6a51 97bc dac7 cfdd 07c3 7fa1 5560
000000b0: 0fc7 f8f7 5c33 3a52 c937 afd8 feb8 672a
000000c0: 8cb5 d127 1b4a a7e1 c30b f543 1950 625e
000000d0: b173 c8cd f2ae b317 2b50 41e3 7fed 0e29
000000e0: 5d34 c9fb 3f18 7529 1a03 120a 52dc a712
000000f0: eac3 6d3f 946c 2d02 42bf 2a51 e7c5 2f3f
49 0 -64 -25 37 62 -32 -111
77 -58 90 67 16 -47 -127 1
-90 -54 -103 12 69 40 -104 10
-35 -10 -55 -97 14 -110 30 30
-29 60 -3 33 -122 -58 -6 -50
-8 -11 111 -38 127 14 7 -101
43 56 27 -43 -45 38 68 -29
50 67 -43 -57 90 38 -28 100
-61 -16 -6 60 -7 -86 -70 -111
105 93 -53 -36 83 56 70 -67
85 -49 -106 -76 70 -58 -76 -27
-76 -57 -106 8 -62 -8 115 -14
-51 -11 84 106 94 -90 -93 -56
-108 -9 -8 -89 -35 -5 9 1
89 -22 -19 127 27 -74 93 -5
-52 -30 -28 -28 78 24 -50 -62
-42 69 90 -107 -22 -77 15 43
42 -4 -37 -75 64 89 -70 -99
2 -28 -8 -114 17 85 -101 -20
78 27 69 -81 100 90 61 -54
24 -8 106 81 -105 -68 -38 -57
-49 -35 7 -61 127 -95 85 96
15 -57 -8 -9 92 51 58 82
-55 55 -81 -40 -2 -72 103 42
-116 -75 -47 39 27 74 -89 -31
-61 11 -11 67 25 80 98 94
-79 115 -56 -51 -14 -82 -77 23
43 80 65 -29 127 -19 14 41
93 52 -55 -5 63 24 117 41
26 3 18 10 82 -36 -89 18
-22 -61 109 63 -108 108 45 2
66 -65 42 81 -25 -59 47 63

tfl.pseudo_qconst5 i1 [256, 64]
00000000: 2dd3 f62d e7e3 110f d101 b909 092a c71a
00000010: 34fa eed0 4040 2607 061f a97f e59d 7cf4
00000020: d418 ebfe 3cd7 1e56 2604 5604 ebf7 39e2
00000030: e239 3503 27f9 0144 0864 1a35 09f7 d801
00000040: a7de f3d2 061a 20e2 d2d3 1fdc d383 1c36
00000050: e819 2a9e 3515 710d 61ee e7be 1021 c963
00000060: dec3 ccda d312 fe95 d358 f405 f337 312d
00000070: 08fb 02e4 7fe9 f52d 7f51 dc4a 0e10 1912
00000080: 2ced bd3d aa01 112e 45da d7df 25ef 0881
00000090: eadf 160a 2bd6 14a9 0736 3335 2236 ecf3
000000a0: 19e9 aa51 3c05 3a01 1bb8 1ac4 2e1f e5f7
000000b0: 32e5 0d09 caf8 f542 054a dab4 0e2a e715
000000c0: 6010 d009 4009 1ad0 11f5 ca10 2ff3 0ee7
000000d0: 8100 450c 210a 26f4 4111 1924 08e6 f2fc
000000e0: d7fe 3144 ed16 cf13 cbe5 bb14 dfe5 3a40
000000f0: de48 beff f0f9 3b4d ea35 1bf3 f5f9 28d7
45 -45 -10 45 -25 -29 17 15
-47 1 -71 9 9 42 -57 26
52 -6 -18 -48 64 64 38 7
6 31 -87 127 -27 -99 124 -12
-44 24 -21 -2 60 -41 30 86
38 4 86 4 -21 -9 57 -30
-30 57 53 3 39 -7 1 68
8 100 26 53 9 -9 -40 1
-89 -34 -13 -46 6 26 32 -30
-46 -45 31 -36 -45 -125 28 54
-24 25 42 -98 53 21 113 13
97 -18 -25 -66 16 33 -55 99
-34 -61 -52 -38 -45 18 -2 -107
-45 88 -12 5 -13 55 49 45
8 -5 2 -28 127 -23 -11 45
127 81 -36 74 14 16 25 18
44 -19 -67 61 -86 1 17 46
69 -38 -41 -33 37 -17 8 -127
-22 -33 22 10 43 -42 20 -87
7 54 51 53 34 54 -20 -13
25 -23 -86 81 60 5 58 1
27 -72 26 -60 46 31 -27 -9
50 -27 13 9 -54 -8 -11 66
5 74 -38 -76 14 42 -25 21
96 16 -48 9 64 9 26 -48
17 -11 -54 16 47 -13 14 -25
-127 0 69 12 33 10 38 -12
65 17 25 36 8 -26 -14 -4
-41 -2 49 68 -19 22 -49 19
-53 -27 -69 20 -33 -27 58 64
-34 72 -66 -1 -16 -7 59 77
-22 53 27 -13 -11 -7 40 -41
